ROS_AMLProject/obj_cls_step1.pth (torch, 95399 bytes, 2 tensors)

class_classifier.weight f4 [46, 512]
000000 85 91 ec bc 80 2c 0d 3d 9b 89 45 3c fd e6 7e 3c
       -0.028877983 0.034466267 0.0120567335 0.015558002
000010 ed b5 19 3d 3a 04 35 3d 10 f8 06 bd 73 57 3e bd
       0.037527014 0.044193484 -0.032951415 -0.046470117
000020 1d 61 2f bd 61 86 05 bc c1 33 5f bd 64 5b de 3c
       -0.042817224 -0.008149714 -0.054492716 0.027143188
000030 9f 8e 38 bd 9f 11 30 bc ca 81 f6 3b ab 5a 19 bd
       -0.04505789 -0.010746389 0.0075227963 -0.037439983
000040 d3 57 b6 bb 64 8d 0a bb 56 fd 01 3d 7f 1d f1 3c
       -0.0055646687 -0.0021141404 0.03173574 0.02943301
000050 a0 4f 2b 3d 59 03 a4 bc 70 61 ff 3c f6 8b 75 bd
       0.041823983 -0.020021128 0.031174392 -0.05994793
000060 01 e2 da 3c 4e 35 e7 3c 09 61 3f 3d 7a 10 b6 bc
       0.026719095 0.02822366 0.0467234 -0.022224654
000070 12 7c b1 bc f4 c2 b2 bc 14 bf a9 bb 99 56 4b bb
       -0.021665607 -0.021821477 -0.005180249 -0.0031026958
000080 0f b1 65 bb 87 bd a8 3d 7f 92 73 bc 97 b6 17 bb
       -0.0035048162 0.082392745 -0.01486647 -0.0023149604
000090 6d 87 95 3c 4a c7 8b 3c ea e8 7c 3b c9 f8 39 bd
       0.018253053 0.017062802 0.0038590976 -0.045403276
0000a0 0d b2 3e bd f2 b2 14 bd 05 68 f8 bc 6a dc 1d bd
       -0.04655652 -0.036303468 -0.030323038 -0.03854028
0000b0 bb ef 20 3a ee 61 0f b9 f2 89 b2 bb 77 b8 42 bc
       0.0006139238 -0.00013674024 -0.0054485733 -0.0118848
0000c0 0d 13 bf 3b 31 ee 20 bd ad 31 81 3b a0 ec 3d 3d
       0.0058311285 -0.039289657 0.0039426894 0.04636824
0000d0 2a ed bc bb e1 1d 05 3d 4c a5 0b 3d b7 19 22 bd
       -0.005765577 0.032499198 0.034093186 -0.039575305
0000e0 76 0a 8e bc 12 0b 32 bd a8 dd 55 3d f4 ae ea bc
       -0.017338973 -0.04346759 0.05221334 -0.028647877
0000f0 ef 52 0b 3d 5b 97 e2 3c 07 cb 8f 3c 66 1b 19 3d
       0.03401464 0.027660063 0.017552866 0.037379645
000100 35 a0 e7 bc fa a9 d6 bc 26 7d 68 3c 06 9a 26 3d
       -0.028274635 -0.026204098 0.014189994 0.040674232
000110 d6 0b 00 3d f7 34 81 3c 1f 7d 2c bd 28 dd 62 bd
       0.031261288 0.015772326 -0.042111512 -0.055386692
000120 55 4f 44 ba e1 bf 45 3d a4 5a a7 3c 4f 04 51 3d
       -0.0007488628 0.048278693 0.020428963 0.0510295
000130 a1 d5 c4 3c d5 30 77 3d f5 bb 86 3c 9a c2 aa bc
       0.024027647 0.060349304 0.016447047 -0.020844746
000140 6e 79 ce 3b a3 9f 40 3d 21 6b 92 bc 61 e3 16 bd
       0.0063010966 0.04702724 -0.017873349 -0.03683794
000150 1d b5 41 bc 1c 2b 6a 3c fa 64 e2 3b a0 17 65 bc
       -0.011822966 0.014292505 0.00690901 -0.013982683
000160 59 a6 3c bd 04 a7 29 bc 42 e6 bb 3c ac eb 57 bb
       -0.04605708 -0.010354761 0.022936944 -0.0032946868
000170 f7 f9 15 3c 29 61 2a 3d 02 b4 87 3c e9 66 c2 3d
       0.009153835 0.041596565 0.016565327 0.09492285
000180 a3 8a 00 3d 8f 97 3f bc fa 0e ff bc a2 8d 98 3c
       0.031382214 -0.011693849 -0.031135071 0.018622223
000190 cd 4d 16 3d 0f f0 9a bc 1f 45 36 bd ce a5 c0 bc
       0.03669529 -0.018913297 -0.044499513 -0.023516562
0001a0 05 7c 74 bc 1d 49 2d 3d e8 50 36 3c 2d 2a f3 bb
       -0.014922147 0.042306054 0.011127688 -0.007420799
0001b0 3c 17 ca 3c 74 a0 2e 3d 10 55 98 bb 58 7e 3a bd
       0.024669282 0.04263349 -0.004648812 -0.045530647
0001c0 d7 ab 3c 3c 62 b0 10 bd 13 40 d8 3c d4 f9 34 3c
       0.011515579 -0.03532446 0.02639774 0.011045892
0001d0 4b 38 6c bc 0d 1d 91 bc 31 f2 44 3c d1 25 11 3d
       -0.014417718 -0.017714048 0.012020634 0.035436455
0001e0 7a a8 6a bd 1c ff 02 3c 28 c5 da bc 6c 6f 81 bc
       -0.057289578 0.007995393 -0.02670534 -0.0158002
0001f0 11 c3 d5 bb ec 08 05 bd 64 5d b4 bb c2 b6 ef bc
       -0.006523498 -0.03247921 -0.005504297 -0.02926195
000200 82 9b ea bb 02 14 4b 3d e4 ea 72 bb 94 d3 1e bd
       -0.0071596513 0.049579628 -0.0037066275 -0.038775995
000210 d4 71 61 3c 12 7a 16 3b 73 27 0a bc f0 72 c6 bc
       0.013760049 0.0022960943 -0.008432257 -0.024224728
000220 c3 4d b2 bc 2b 22 7e 3b 32 3d 18 3d ea a6 91 3b
       -0.021765595 0.003877769 0.037167735 0.0044449465
000230 48 17 16 bd 19 45 96 3b 92 80 91 bc 98 0f 9b 3c
       -0.036643296 0.004585874 -0.017761502 0.018928334
000240 e2 21 80 39 ff fa 2d bd a6 56 ae 3c b0 4c 17 bd
       0.00024439307 -0.042475697 0.021281552 -0.03693837
000250 d5 db 2a bc 56 aa 36 bb 3b 7a 8a 3d 3a 6c 50 3c
       -0.010428389 -0.0027872524 0.06761595 0.012721116
000260 d7 87 b4 3c 05 1e 85 bb 27 c7 c2 bc 12 62 5d 3d
       0.02203743 -0.0040624165 -0.023776604 0.054048605
000270 5d f2 f0 3c 00 3c eb bc 0d 55 88 bc 68 a4 45 bd
       0.029412443 -0.028715134 -0.016642118 -0.048252493
000280 6d 5d 02 3d a7 8b be 3c 42 f0 07 bb ad da 81 bd
       0.03182738 0.02325995 -0.002074257 -0.06340537
000290 4f 12 a1 3b 7b f8 9f 3c 4c 29 8f bc 92 c1 fb 3c
       0.0049155126 0.019527664 -0.017475747 0.03073195
0002a0 24 de 59 3d e8 3f 2d bd 36 f2 2b 3d 9f 1d ca bc
       0.053190365 -0.042297274 0.041979037 -0.024672328
0002b0 2b f8 10 3d 51 a0 6f 3d 25 a6 36 3d 97 c3 ef 3c
       0.03539292 0.0585025 0.04459204 0.02926807
0002c0 ee 79 5b 3d 32 c7 89 3d 83 be b6 bc 73 b0 11 bc
       0.053583078 0.067274466 -0.02230764 -0.008892166
0002d0 36 bc 41 bd 5d 84 c4 3a 45 86 38 3d fe 31 2d bc
       -0.047298633 0.0014993061 0.045049924 -0.010571001
0002e0 97 d9 11 bd 62 c9 51 bd 38 82 2f 3b a0 43 b1 bb
       -0.0356079 -0.051217444 0.0026780497 -0.005409673
0002f0 8f 36 76 3c 46 53 1c 3d 35 13 a5 bc 44 cf 4d bd
       0.015027656 0.038165353 -0.02015076 -0.050246492
000300 4a 59 cb bc a6 82 28 bd d2 af d6 3c a7 64 2c bd
       -0.02482285 -0.04114022 0.026206885 -0.042088177
000310 96 ef 2e bd 8e cd cc 3b bd e2 89 bd ba 2b 87 3c
       -0.042708956 0.00625009 -0.067327 0.016500343
000320 82 e2 ab 3c 03 b7 59 bb c9 ad 67 bb 1d ea 3f 3c
       0.02098203 -0.0033220656 -0.0035351387 0.011713532
000330 8a 38 bd 3c 26 fd 91 bb 6a 8f 4b 3c c6 7a f5 3c
       0.023098249 -0.0044552265 0.012424329 0.02996577
000340 7e e4 03 bd 7b 7f f7 3c 19 2b 14 bd ea ac 72 bd
       -0.03220033 0.030212155 -0.036173914 -0.059246935
000350 35 8c d9 3c 0d 05 3b bd fc 6a 01 3d d7 1a 0f 3d
       0.026556114 -0.045659114 0.03159617 0.034937706
000360 c4 68 7d bb 0a 6c c6 bb 44 49 38 bd e1 a1 14 3d
       -0.0038667182 -0.0060553597 -0.044991747 0.036287192
000370 b0 59 a0 3c 79 0a 11 bd 1d e6 89 bb b7 be 1f bd
       0.019574016 -0.035410378 -0.00420834 -0.03900024
000380 76 31 36 bd df 06 91 3c 89 d2 23 bd 35 95 9a 3d
       -0.044480763 0.017703472 -0.039995704 0.0754799
000390 3a 87 81 39 66 d3 b2 3c 07 3a 69 3b 3a 2c 55 3c
       0.0002470555 0.021829318 0.0035587566 0.013011033
0003a0 b7 f1 0d bd 99 ce 0a 3c d1 07 40 3d 77 ac 62 3c
       -0.034654345 0.008472108 0.046882454 0.013835064
0003b0 87 6b 1b bc 4b fd 37 3c 8c 45 95 3d 7d 03 c9 bc
       -0.009486086 0.011229823 0.07288656 -0.024537796
0003c0 89 49 12 3c ca 87 90 bc 51 f9 42 3d 89 ec ad bc
       0.008928665 -0.017642874 0.047601048 -0.021230953
0003d0 f4 7c f6 bc e9 fa b7 3b ac 5b 37 bd c0 e7 8d bb
       -0.03008888 0.0056146276 -0.04476516 -0.0043306053
0003e0 85 14 a8 3c 9d c2 0b 3c 60 ca 58 bc 1d e7 f3 bc
       0.020517597 0.008530286 -0.013231844 -0.02977329
0003f0 08 3d 67 bc 02 08 bb 3c 39 43 9b 3c 3b d2 92 3c
       -0.014113672 0.022830967 0.018952953 0.017922511

class_classifier.bias f4 [46]
000000 a6 8e 0a 3c 37 94 e1 3a c9 6a 15 3d 94 df 20 3c
       0.008456862 0.0017210309 0.03647879 0.00981893
000010 7a 81 a2 3c ca 98 e2 3c 5b 0c f3 bc bb f1 b3 3c
       0.01983713 0.027660746 -0.029668977 0.021965852
000020 b7 0e 41 bc 28 bd 0e 3c 56 1c db 3c 02 8c 16 3d
       -0.011783293 0.008712091 0.02674691 0.036754616
000030 2b 9f 1b 3d 3c 21 90 3c e9 90 28 bd ec 13 2c b8
       0.03799359 0.017593972 -0.041153822 -4.102655e-05
000040 a9 21 24 bd 74 3f a7 bc dd 7e fa bb ce c3 e0 bc
       -0.040071163 -0.020415999 -0.007644518 -0.027437117
000050 12 7f 12 3d 4e b8 1f bd 62 ca 80 3c 2b 76 94 3c
       0.035765715 -0.038994126 0.015721504 0.018122753
000060 9d 04 df 39 32 66 1e 3d fb f2 ca bc fd 52 30 bd
       0.00042537312 0.03867168 -0.024774065 -0.043047894
000070 7a 15 9f 3c 61 50 3d 3c 78 b5 f0 bc 4c 28 84 3c
       0.01941942 0.011554808 -0.029383406 0.016132496
000080 ce b3 b5 3c 88 c2 97 bc e3 85 01 bd 6f 56 55 bc
       0.022180464 -0.018525377 -0.031621825 -0.013021096
000090 76 f9 ba bc 03 9f 1c 3d 5d 29 bb 3c 31 b3 30 3b
       -0.02282403 0.038237583 0.022846872 0.0026962275
0000a0 0b 8e 72 3c 56 dc ea bc be 6d c8 3c ee fb 9c bc
       0.0148043735 -0.028669517 0.024466392 -0.019163098
0000b0 09 9a d8 3c 2f a2 51 3c
       0.026440637 0.012795015
