ROS_AMLProject/obj_cls.pth (torch, 95399 bytes, 2 tensors)

class_classifier.weight f4 [46, 512]
-0.008054461 0.029240869 0.064760804 -0.007349053 0.048910882 0.03244487 0.036183447 0.018027546
-0.037923373 -0.036256477 -0.032802008 -0.057181083 -0.028963493 0.020557217 -0.06310997 -0.040416982
0.08005675 0.03865799 0.020404784 0.01103006 -0.04099567 0.05425663 0.033802424 -1.8638073e-05
-0.04837648 -0.050143518 0.049132954 -0.013133705 -0.020583108 -0.03928609 0.00014228158 0.009921423
0.0259381 0.021567462 0.009485808 -0.021583572 -0.030746827 0.056562636 0.03664392 0.014015079
-0.03461889 0.004710417 -0.05797023 -0.05098895 -0.05668563 -0.027448766 0.016305884 -0.039428286
0.020326477 -0.009272331 -0.01489123 -0.0014176222 0.044092804 -0.03360675 -0.027709384 -0.00767601
0.018777434 -0.044227593 0.015970523 0.0052890587 -0.037530057 0.049674124 0.0026864777 0.034699894
0.024848584 0.037019596 -0.056217123 -0.0049683703 0.042855475 0.037812028 -0.029024249 -0.044020012
-0.058060285 0.05930749 -0.026686091 0.058241945 0.003198087 0.07955368 -0.04625424 0.022674259
0.06626101 0.058983956 -0.017157342 -0.048346434 -0.045069035 0.036508285 0.038586978 0.06192356
-0.0065971203 -0.01874283 -0.025707878 0.0062485277 -0.032981507 -0.04603535 0.087593354 0.082879975
-0.044888034 0.018814359 -0.030148722 -0.027600314 -0.0047921264 0.027863974 -0.027842786 0.036634292
-0.05679283 -0.008755908 0.026362814 -0.011836072 -0.046394106 0.04140681 0.04176743 0.010208758
0.08515248 -0.008692793 0.0018153576 0.040851675 -0.04884153 0.018434985 0.047752675 0.06486697
0.038357377 -0.022829626 -0.036195412 0.010223365 0.018477414 -0.018663323 0.013331436 0.019053048
-0.059682924 -0.015575551 0.000451337 -0.048464432 -0.050074693 -0.045532092 -0.004984973 -0.026985733
0.039829485 -0.041101575 -0.026993342 -0.014968325 -0.007885774 0.016775496 -0.058824982 -0.04254274
0.07736861 0.019708777 -0.029014401 -0.016934194 -0.036227744 -0.058800947 0.012516498 0.009913278
0.00041415534 -0.03551264 -0.02569153 -0.018254802 0.015853705 -0.0075614247 0.022592515 0.021902196
0.037638284 0.0008594624 0.049370058 -0.009522251 -0.024735611 0.039628517 0.021692537 0.00700295
-0.0142491935 0.030133106 0.03605384 -0.006688842 0.015979538 0.031413544 -0.0027439506 0.02410377
0.07519678 0.007116821 0.072471455 -0.007855617 -0.040917363 -0.03645212 0.056113157 0.0026715682
-0.027411718 -0.023871295 0.018839326 -0.042509787 -0.01866904 0.061355058 -0.0040354286 -0.02100986
-0.06680124 -0.024723805 -0.036576632 0.016568236 -0.021436254 0.016651865 -0.008501783 0.0051723886
0.037034005 -0.033591725 0.009520892 -0.0076596336 0.026584886 -0.07366525 -0.026662 0.010790798
0.042781975 -0.057566307 -0.036655664 -0.00040488667 0.006597951 -0.030253425 0.0070308982 -0.02223354
0.030750755 -0.056655016 -0.048390094 0.031977758 0.021681473 0.0019932329 -0.027669564 -0.049934268
-0.05058281 0.01566965 -0.049375005 0.091945454 0.038982637 -0.051028304 -0.053021424 -0.011782194
-0.04015399 -0.03892886 -0.040447194 0.009193069 -0.01667002 0.015691137 0.05039493 -0.06652426
0.032149285 -0.04067984 0.051504523 -0.010440057 -0.013557704 -0.02898921 -0.009299395 0.026464425
0.042650286 -0.053261288 0.04012631 -0.04477453 0.060748633 -0.008185948 0.023210518 -0.018919563
00000000: dcf6 03bc 8c8a ef3c 50a1 843d 53d0 f0bb
00000010: c756 483d e9e4 043d 1835 143d 81ae 933c
00000020: 8a55 1bbd ac81 14bd 665b 06bd b636 6abd
00000030: d944 edbc 9c67 a83c cd3f 81bd 478c 25bd
00000040: cbf4 a33d d757 1e3d ef27 a73c 6db7 343c
00000050: 13eb 27bd 333c 5e3d 6974 0a3d f558 9cb7
00000060: 6a26 46bd 4a63 4dbd a33f 493d c02e 57bc
00000070: e89d a8bc 73ea 20bd 6c31 1539 778d 223c
00000080: 237c d43c 3fae b03c 5d6a 1b3c 08d0 b0bc
00000090: c5e0 fbbc 39ae 673d ef17 163d 809f 653c
000000a0: 8acc 0dbd d759 9a3b 3172 6dbd cad9 50bd
000000b0: 312f 68bd 3cdc e0bc eb93 853c 8e7f 21bd
000000c0: b683 a63c faea 17bc 58fa 73bc 82cf b9ba
000000d0: a89a 343d 3ba7 09bd cafe e2bc 0a87 fbbb
000000e0: 22d3 993c fe27 35bd 9dd4 823c d74f ad3b
000000f0: 1eb9 19bd 1877 4b3d 9e0f 303b 7a21 0e3d
00000100: 428f cb3c dca1 173d ed43 66bd b6cd a2bb
00000110: 3989 2f3d c9e0 1a3d 43c4 edbc 544e 34bd
00000120: 9fd0 6dbd 69ec 723d ca9c dabc 1b8f 6e3d
00000130: ff96 513b 0aed a23d 1675 3dbd 5ebf b93c
00000140: dab3 873d 2999 713d 8e8d 8cbc e906 46bd
00000150: 4f9a 38bd b689 153d 610d 1e3d 8fa3 7d3d
00000160: a82c d8bb 908a 99bc 5499 d2bc 73c0 cc3b
00000170: 9e17 07bd 908f 3cbd 2564 b33d fabc a93d
00000180: 84dc 37bd 9220 9a3c 74fa f6bc 0e1a e2bc
00000190: 4507 9dbb fd42 e43c 8e16 e4bc d70d 163d
000001a0: 999f 68bd f174 0fbc d4f6 d73c 16ec 41bc
000001b0: bf07 3ebd 309a 293d 5314 2b3d a242 273c
000001c0: 6c64 ae3d 376c 0ebc 4bf1 ed3a 1654 273d
000001d0: 0e0e 48bd f704 973c 4f98 433d f9d8 843d
000001e0: a01c 1d3d 3205 bbbc a441 14bd e77f 273c
000001f0: f25d 973c d3e3 98bc 186c 5a3c 2315 9c3c
00000200: 1576 74bd 9930 7fbc 6da1 ec39 a482 46bd
00000210: 1f1b 4dbd dc7f 3abd fc58 a3bb 2f11 ddbc
00000220: 3e24 233d 205a 28bd 2421 ddbc b53d 75bc
00000230: 5533 01bc c46c 893c 77f2 70bd 4c41 2ebd
00000240: 6f73 9e3d 4d74 a13c 9caf edbc 94b9 8abc
00000250: 8b63 14bd 43d9 70bd ff11 4d3c 4d6b 223c
00000260: fd22 d939 b475 11bd 0b77 d2bc 188b 95bc
00000270: a1df 813c d4c5 f7bb f013 b93c 3c6c b33c
00000280: 9a2a 1a3d 8c4d 613a 4238 4a3d 3703 1cbc
00000290: 56a2 cabc 8351 223d 8cb4 b13c 0179 e53b
000002a0: 7375 69bc b4d9 f63c 31ad 133d 132e dbbb
000002b0: 85e7 823c 7dab 003d dad3 33bb 4575 c53c
000002c0: c500 9a3d 3934 e93b ea6b 943d d9b4 00bc
000002d0: f798 27bd d14e 15bd e9d6 653d 7a15 2f3b
000002e0: 8a8e e0bc bc8d c3bc ee54 9a3c be1e 2ebd
000002f0: d1ef 98bc 714f 7b3d a13b 84bb df1c acbc
00000300: 17cf 88bd 9489 cabc 61d1 15bd 1cba 873c
00000310: 159b afbc 7e69 883c 104b 0bbc 247d a93b
00000320: f8b0 173d 7a97 09bd 84fd 1b3c aafd fabb
00000330: 8cc8 d93c cedd 96bd 446a dabc e3cb 303c
00000340: 273c 2f3d a6ca 6bbd 4024 16bd f846 d4b9
00000350: a033 d83b 08d6 f7bc 7363 e63b 1d23 b6bc
00000360: 02e9 fb3c 170f 68bd b134 46bd 1cfb 023d
00000370: 589d b13c e6a0 023b 48ab e2bc e087 4cbd
00000380: ec2f 4fbd a35d 803c 723d 4abd e64d bc3d
00000390: 42ac 1f3d 0e03 51bd fe2c 59bd 1a0a 41bc
000003a0: 8378 24bd de73 1fbd f5ab 25bd 879e 163c
000003b0: 918f 88bc b38a 803c ea6a 4e3d df3d 88bd
000003c0: f8ae 033d e79f 26bd 68f6 523d c60c 2bbc
000003d0: 2221 5ebc c87a edbc 7d5c 18bc eccb d83c
000003e0: 11b2 2e3d 8228 5abd 7c5b 243d 7f65 37bd
000003f0: 8fd3 783d 5b1e 06bc fc23 be3c 33fd 9abc

class_classifier.bias f4 [46]
-0.034862947 0.030980654 -0.036854666 -0.011472539 0.02404254 0.0061082807 -0.03201266 0.0013427763
0.04665279 0.005695427 0.031431902 0.012274837 0.02363858 -0.017838284 -0.028630301 0.022012386
0.029472085 0.025235876 -0.006204949 0.023943119 -0.040365685 0.0032803558 -0.015789341 0.040856026
-0.020356826 -0.020542458 0.014700035 -0.033194847 0.004558087 -0.013596264 -0.015818598 0.014566784
-0.032535024 -0.026861109 0.022673884 0.026638625 -0.018782612 -0.01154055 -0.022988329 0.0016606315
0.026290087 0.03597725 0.008589356 -0.0070567857 -0.028204964 -0.004315254
00000000: 73cc 0ebd 24cb fd3c ebf4 16bd 51f7 3bbc
00000010: dcf4 c43c f927 c83b b51f 03bd 1900 b03a
00000020: ff16 3f3d b4a0 ba3b bdbe 003d 661c 493c
00000030: b2a5 c13c 9821 92bc 188a eabc 5253 b43c
00000040: 716f f13c 78bb ce3c e352 cbbb 5c24 c43c
00000050: 7d56 25bd 3dfb 563b a658 81bc a658 273d
00000060: 5cc3 a6bc a848 a8bc 6ad8 703c 52f7 07bd
00000070: 015c 953b ddc2 5ebc 0196 81bc 85a9 6e3c
00000080: 7243 05bd d40b dcbc 95be b93c 3f39 da3c
00000090: fedd 99bc 9314 3dbc 0552 bcbc 8ca9 d93a
000000a0: 4f5e d73c e25c 133d 5fba 0c3c 9c3c e7bb
000000b0: 190e e7bc f966 8dbb
