ROS_AMLProject/obj_cls.pth (torch, 95399 bytes, 2 tensors)

class_classifier.weight f4 [46, 512]
00000000: 9322 133d e641 b03c 41e4 f0bc 6343 243d
00000010: 13f3 e13c f443 833c 2351 e6bc 8b4b 28bd
00000020: 4b13 d8bb c57c 6c3c 0b1b fd3c 5d81 e23c
00000030: ef83 debc 44c7 3e3d 20d5 113d f964 2e3c
00000040: 0434 883d 3fe0 3e3d 8503 2cbd 0517 053b
00000050: ce68 013c 37be fb3c 3e33 fb3b a0b3 1abc
00000060: a7cc 12bd 4d51 00bd 3742 c93b c392 7f3c
00000070: 8bdb db3c 17b5 743c 2e2e 9a3b 6e00 eaba
00000080: f493 3cbd 4f33 853d 076f 2b3c 4e99 ffbb
00000090: 5d34 2cbb 1de3 f7bc 3603 d4bc bee3 b13c
000000a0: b181 d3bb b7b6 4ebd b8c5 bc3c c919 073c
000000b0: 9fb5 6cbc 29e7 03bd 0ff7 d0ba 12ce 24bd
000000c0: 8d22 0dbd 01ef 93bb 2625 e53c 4cc6 d3bc
000000d0: b3c6 98bc 27ff 143d 784c 90bc 4903 2fbd
000000e0: 0759 1dbd f475 d83b 1f3a 863c 19d7 a23a
000000f0: 4bf7 20bd 3153 42bd 5d7e 223d cd49 943c
00000100: 0ce2 f5bc 89c8 153c 6478 5d3c 29b2 0fbd
00000110: 72ff 733c 1f2a 43bd 8e10 f53c 4835 e93c
00000120: 8265 f13b b840 4e3c e18e 2cbc cf6d 0e3d
00000130: 36dc d43c 5a4a 99bc dcb9 f2bc b0e8 83bc
00000140: 15b5 c2bc 0798 8cbc 8c52 3d3c ffd0 79bc
00000150: d0bf 1fbd 4c3a 163c 0961 13bd 30b6 80bc
00000160: 65af 7abb acf1 e43c 1f14 9a3c 3131 2bbd
00000170: 4415 b23c 4cb6 dc3c 958d 813d 307f 4c3d
00000180: bbe7 81bc dd87 05bc 1a14 c1bb 0e6a 31bd
00000190: 994a c4bc f541 e83b 627c c7bc 9dd2 8a3c
000001a0: 8941 3dbd 0957 153d 1bf5 3b3c 9d8d 173c
000001b0: 1665 d43c 4c17 343d b673 7bbc 2221 46bd
000001c0: 330d f3bb d5df 02bd 2709 13bd 85f8 1dbd
000001d0: 2110 71bc e4e3 a0bc e886 983c a599 15bc
000001e0: 108c 4e3b 48dc fdbc 3044 043b 4923 0abb
000001f0: df39 c6bc 4a39 bb3b 6bd2 8abc 0481 1abd
00000200: af2e 213b da2f b0bb a61b 013d 3b4c 893c
00000210: 4adc 06bb 96de d6ba 3778 5c3c c5c8 183d
00000220: e4d1 193d 4c8b 86bb 8be2 cc3c 9c0b b13c
00000230: 179c 0b3d 5e93 01bd d88e e0bc 44f2 123c
00000240: c3d9 993b 4233 f53c 578a 7e3c 8287 383b
00000250: 9fc1 5dbd 3000 093d 87d2 083d caf3 d2bc
00000260: 52a4 bcbc f95d 8b3b efdc f43c d2c3 ce3c
00000270: 95bf 0dbc fcd4 1cbd c465 223d c72f 30bd
00000280: d74f 18bc 5ff9 0c3d 85fa 693c 908b 38bc
00000290: 65e1 9f3c b1f3 163d 872c df3c 7929 803c
000002a0: d900 cb3b 7d2d 3ebd b1b3 8e3c 0a6f e8bc
000002b0: 9641 4b3c 4a53 c63c d16c 903b fdac 8d3c
000002c0: 41e0 fa3c 8da5 bf3c 4c59 233b e882 343c
000002d0: ae28 143c fcb0 cdbc 87e9 273d ed73 4cba
000002e0: 2cae d9bc a6ad 9d3c 79d6 a9bb 3214 3ebd
000002f0: 9008 a63c eb7f 173d 58ce 1c3d f01d 34bd
00000300: f70e 823c f829 713b 6256 31bc b7b2 7ebc
00000310: cc13 2fbd 97b4 f0bb 0429 b43c 3965 a8bc
00000320: 0e8d 72bb 4305 f93c 159c 9bbb 112f 04bd
00000330: df69 07bd 6b2f 503c 9bf0 ffbb 97df 39bd
00000340: cecf dfbc 5220 6abc faaa 13bd b9df 363c
00000350: c460 013c 7ddd 2a3d b2fa 6ebc 1deb a4bb
00000360: 5b0c c23c 4054 10bc f3e4 8bbc 0e1b 293d
00000370: 4db3 6c3c 24a9 a73b 7a68 18bd 2cb7 65bc
00000380: 9418 013d 27d0 ddbc 6159 65bd 7d31 823d
00000390: 2b68 993c a035 fe3c 5705 20bd aa08 c53c
000003a0: 270c b53a 6561 2fbd 20aa 03bd 7173 403d
000003b0: 13c2 5cbc c701 0b3d 65c3 aabc 26df e9bc
000003c0: ee46 373d e9fb 9bbc 6753 a23d 836b 05bd
000003d0: b725 e53c 13b6 883c 1436 d8bc 80b8 0dbc
000003e0: e6ff d23c 689d dc3c 4bbe d4bc c426 043d
000003f0: 16f0 35bc 95a5 2f3d 1980 75bc 8e04 213d
0.035921644 0.021515798 -0.029405715 0.040103327 0.027581727 0.016023614 -0.02811486 -0.04108767
-0.006594097 0.014434044 0.030896684 0.027649576 -0.02716252 0.046576753 0.035603642 0.010644191
0.06650546 0.046600576 -0.041995544 0.002030791 0.007898523 0.03073035 0.0076660207 -0.00944224
-0.035839703 -0.031327534 0.0061419266 0.015598956 0.026838085 0.014935753 0.004705212 -0.0017852911
-0.046039537 0.06503927 0.010463483 -0.0078002578 -0.0026276328 -0.030259663 -0.025880437 0.021715041
-0.0064546694 -0.05046722 0.023043498 0.008245894 -0.014447599 -0.032202873 -0.001594277 -0.040235586
-0.03445678 -0.0045145755 0.027971815 -0.025851391 -0.018649435 0.036376145 -0.017614588 -0.042727742
-0.03841498 0.006605858 0.016385136 0.0012423723 -0.039298337 -0.04744262 0.03967129 0.018101597
-0.030015014 0.00914205 0.013517473 -0.035082016 0.014892446 -0.04764759 0.02991512 0.02846779
0.007366837 0.012588672 -0.010532112 0.03477269 0.025983911 -0.018712211 -0.02962964 -0.016102165
-0.023767987 -0.017162336 0.011555325 -0.015247582 -0.039001286 0.0091691725 -0.03598121 -0.015711874
-0.0038251516 0.02794727 0.018808423 -0.04179496 0.021738656 0.026942395 0.06325833 0.049925983
-0.015857568 -0.008150068 -0.005892289 -0.043314032 -0.023961352 0.007087941 -0.024351303 0.016946131
-0.046205077 0.036459956 0.011472012 0.009250072 0.025927108 0.04396753 -0.015347412 -0.04837144
-0.007417345 -0.031951744 -0.0358974 -0.038567085 -0.014713318 -0.019639917 0.018619016 -0.00913087
0.003151659 -0.030988827 0.0020182244 -0.002107816 -0.024197517 0.0057136165 -0.016946038 -0.037720695
0.0024594476 -0.005376798 0.03152051 0.016759982 -0.002057808 -0.001639324 0.013456396 0.037300844
0.037553683 -0.004105961 0.025010368 0.021611981 0.034084406 -0.03163468 -0.027411863 0.008968893
0.0046951487 0.029931668 0.0155359125 0.002815694 -0.05413973 0.033447444 0.0334039 -0.025751013
-0.023027573 0.004253146 0.029890506 0.025239859 -0.008651634 -0.038289055 0.039647833 -0.043014314
-0.009296379 0.034417506 0.01428092 -0.011263743 0.019516656 0.036853496 0.027242912 0.015644776
0.0061951694 -0.0464301 0.017419668 -0.02837326 0.012405774 0.024209637 0.004407503 0.017294401
0.03062451 0.02339437 0.0024925051 0.011017539 0.009042902 -0.025108807 0.040994193 -0.0007799257
-0.02657231 0.019247841 -0.005183038 -0.04640598 0.020267755 0.036987226 0.038282722 -0.043973863
0.015876276 0.0036798697 -0.010823818 -0.015545539 -0.04274349 -0.0073457467 0.021992214 -0.02055608
-0.0037010345 0.030398017 -0.004748831 -0.03227145 -0.03305995 0.012706618 -0.007810665 -0.045379248
-0.027320769 -0.014289932 -0.036051728 0.011161738 0.007896606 0.041715134 -0.014586138 -0.0050329105
0.023687532 -0.008809149 -0.017076945 0.041285567 0.0144470455 0.0051165987 -0.03720901 -0.014020722
0.03151758 -0.027076794 -0.05599344 0.063570954 0.018726429 0.03103143 -0.039067592 0.024051983
0.0013812826 -0.042817492 -0.032144666 0.046985094 -0.013474005 0.033937242 -0.020845124 -0.028548788
0.04474538 -0.019041019 0.07926064 -0.032573234 0.027972085 0.016688382 -0.026392974 -0.008649945
0.025756788 0.026930526 -0.025969645 0.032263532 -0.011104604 0.04288252 -0.014984154 0.039310984

class_classifier.bias f4 [46]
00000000: 876f 3ebd 2254 2ebc 2e7b 2d3d 77af 55bb
00000010: e272 143d 7ba5 ff3b 9f50 5f3c 28a7 c83c
00000020: e925 debc 776e 2b3c 0ace a73c c01e b53c
00000030: 1bbb e4bc 2d9b bcbb 6f1d 16bd 1057 383c
00000040: 6e4a 1dba d777 43bc 9376 17bd 488f f1bc
00000050: 9200 3e3c 6171 02bc 8a44 9e3b 5c13 2fbd
00000060: a68b cd3c 320a 2dbd 9ee3 043d d0e4 263b
00000070: 9784 60b9 0829 c7bc 7ae4 873c d44e 1cbd
00000080: eeb8 593c 4849 783c 8429 9dbb 8b02 d13c
00000090: 75c2 26bd caef 16bd f3a3 01bd 3e84 fe3c
000000a0: 3189 213d b0e5 dabb a012 01bd d9a5 e6bc
000000b0: b1ba 62bc 7d5b f03c
-0.04649308 -0.010640176 0.0423538 -0.0032605806 0.036242373 0.007801709 0.013630061 0.024493769
-0.027117686 0.010463349 0.02048399 0.02210939 -0.02792125 -0.005755803 -0.036649164 0.011251226
-0.00060001656 -0.0119304275 -0.036978316 -0.029487267 0.011596816 -0.007961602 0.004829948 -0.042743072
0.025091004 -0.04224605 0.032443635 0.0025465973 -0.00021411698 -0.024311557 0.016588438 -0.038161114
0.01328872 0.01515419 -0.004796209 0.025513908 -0.040712792 -0.036849774 -0.031650495 0.031068917
0.039437477 -0.006680213 -0.031511903 -0.028155254 -0.013838456 0.0293405
