ROS_AMLProject/rot_cls.pth (torch, 17447 bytes, 2 tensors)

class_classifier.weight f4 [4, 1024]
0	0xbc9f6c6f	-0.019460885
1	0x3cb0a77e	0.021564241
2	0x3cc7b9bd	0.02438056
3	0xbc84f2a9	-0.01622899
4	0x3bdd074d	0.006745255
5	0x3ba1fa58	0.0049431734
6	0xbc15872b	-0.009126465
7	0x3c41c38a	0.011826405
8	0xbccf8a6f	-0.025334565
9	0xbca8103f	-0.02051556
10	0xb8f40d5e	-0.000116373165
11	0x3c8b2b42	0.0169884
12	0x3c627c0a	0.0138235185
13	0xbc71f532	-0.014767932
14	0x3cac699d	0.021046454
15	0xbd7b858a	-0.06140665
16	0xbb86bf10	-0.004112132
17	0xbb2953fe	-0.0025837417
18	0x3b32beea	0.0027274438
19	0x3c1861af	0.009300633
20	0xbd14bf18	-0.036315054
21	0x3ca1c220	0.019745886
22	0x3ceef7e6	0.029170942
23	0x3c0bd792	0.008535283
24	0x3aed6492	0.0018111637
25	0x3c30021e	0.010742692
26	0x3ccdb11c	0.025108866
27	0x3b13445f	0.0022471172
28	0xbc93f1cb	-0.018059632
29	0x3bec0b93	0.007203528
30	0x3c9b7ada	0.018979479
31	0xbc931de0	-0.017958581
32	0xbbe8f6a3	-0.0071094795
33	0x3a6b0f63	0.00089668314
34	0xbcab124f	-0.020882754
35	0xbc8d1d12	-0.017225776
36	0xbd0782a7	-0.033083584
37	0xbc0c1f87	-0.008552439
38	0xbc9e8c18	-0.019353911
39	0x3cd4f1e6	0.025994252
40	0xbaa7512e	-0.0012765282
41	0x3d1e584f	0.038658436
42	0xbb14ba33	-0.0022693991
43	0xbc4c3b5c	-0.012465324
44	0xbc79b47c	-0.015240785
45	0xbca86d5b	-0.020559957
46	0x3cf92869	0.030414777
47	0xbcb0bced	-0.021574462
48	0xbc4952e0	-0.012287825
49	0xbc11fa0a	-0.008909712
50	0x3c9c1551	0.019053133
51	0x3be4a381	0.006977499
52	0x3cb67290	0.022271425
53	0xbbefa65f	-0.007313534
54	0xbcb95ac0	-0.02262628
55	0xbac8ddaa	-0.001532485
56	0x3ccfe2da	0.025376726
57	0xbcf6461b	-0.030062726
58	0xba373921	-0.0006989409
59	0xbc3061a9	-0.0107654715
60	0x3c30a664	0.010781858
61	0x3c63cf32	0.01390438
62	0xbd008fd6	-0.031387173
63	0x3c19f58b	0.009396921
64	0xbcc53f52	-0.024078045
65	0xbcc6418f	-0.024201183
66	0x3b5af756	0.0033411584
67	0xbc01ead7	-0.007929525
68	0x3c4095d2	0.01175447
69	0x3cadc21b	0.02121072
70	0xbca26d78	-0.01982759
71	0xbbd1795d	-0.0063926415
72	0xbd1d5da8	-0.038419396
73	0xbcceaf93	-0.025230205
74	0xbc28f149	-0.010311433
75	0xbc54a71d	-0.012979296
76	0xbb8b0a12	-0.004243144
77	0xbabf48a4	-0.0014593792
78	0xbbf06ea6	-0.007337409
79	0xbcda4b17	-0.026647134
80	0xbc705ee9	-0.014671066
81	0x3caaf508	0.020868793
82	0x3ca23aea	0.019803483
83	0xbd12b8d9	-0.035820816
84	0xbccca8d3	-0.024982845
85	0xbcc7b1fa	-0.024376858
86	0xbcae2c32	-0.021261308
87	0x3bd609f1	0.006531947
88	0xbcf6ba5c	-0.03011816
89	0xbb2b750f	-0.0026162302
90	0x3bbac508	0.0056997575
91	0x3c2d2647	0.010568208
92	0xbb5ee21b	-0.003400928
93	0xbbc9b286	-0.006155315
94	0x3ced301b	0.028953603
95	0xbc2e00b2	-0.010620283
96	0xbc02c45d	-0.007981387
97	0xbc28e601	-0.010308743
98	0xbcae9c1f	-0.021314679
99	0xbc90818e	-0.017639901
100	0x3cd13d9f	0.025542079
101	0xbc33d9af	-0.010977193
102	0x3ca4ce7c	0.02011799
103	0x3c61d0a5	0.013782655
104	0xbcedc53c	-0.029024713
105	0x3c180350	0.0092781335
106	0x3c56e4fc	0.013116118
107	0x3bce13d3	0.0062889843
108	0xbc91db84	-0.017804869
109	0xbc9cf635	-0.01916037
110	0xbb658895	-0.0035024036
111	0xbcff65fe	-0.031176563
112	0xbb92d894	-0.0044813845
113	0x3cbf56b6	0.023356777
114	0x3ca544a2	0.020174328
115	0x3bec2f6d	0.007207802
116	0xbbabdffb	-0.0052452064
117	0xbd3e6584	-0.04648353
118	0x3c92bc72	0.017912123
119	0x3c1c32e7	0.00953362
120	0xbc8694f6	-0.016428452
121	0xbce21ab1	-0.027600618
122	0x3c525836	0.012838414
123	0xbd258b88	-0.04041627
124	0xbd16fb20	-0.036860585
125	0x3c78efab	0.01519386
126	0x3c8dc795	0.017307082
127	0xbd361e73	-0.044462632
128	0x3854bab7	5.071863e-05
129	0xbbca6dbf	-0.0061776335
130	0x3cb8e158	0.02256839
131	0xbd0a42ae	-0.033754997
132	0x3c2f246c	0.010689836
133	0x3c01d73e	0.007924853
134	0x3c982066	0.018570136
135	0xbbe8870b	-0.0070961765
136	0xbc6f26b1	-0.014596627
137	0xbc2d4592	-0.010575669
138	0x3c132ab9	0.008982354
139	0xb870abe0	-5.738053e-05
140	0x3ca7f337	0.020501716
141	0xbced679a	-0.028980065
142	0x3c49bf36	0.012313655
143	0xbc381df8	-0.011237614
144	0xbbed613c	-0.0072442573
145	0x3ca4dbab	0.020124277
146	0x3c9b2189	0.01893689
147	0xbc4d143e	-0.012517033
148	0x3c9d6271	0.01921198
149	0xbcaa619a	-0.020798493
150	0xbc81b6ac	-0.015834175
151	0xbc22e1b2	-0.009941505
152	0xbcc41752	-0.023936901
153	0x3ced441a	0.028963137
154	0x3c897d85	0.016783485
155	0x3d100dfc	0.035169587
156	0x3d0667b1	0.03281373
157	0xbc1b3212	-0.009472387
158	0xbc3aa94f	-0.011392905
159	0x3ce3dd51	0.027815493
160	0xbb8c829d	-0.0042880313
161	0x3ced7acb	0.028989216
162	0x3cb38399	0.021913337
163	0xbd1fab86	-0.038981937
164	0xbd10b948	-0.035332948
165	0xbbc747ec	-0.006081572
166	0xbcaa1a54	-0.020764507
167	0x3bcfdc15	0.0063433745
168	0xbc109a5b	-0.008825864
169	0xbb200b9a	-0.0024420978
170	0x3d0850c1	0.033280138
171	0xbc34d716	-0.011037609
172	0x3ca2c66e	0.01987001
173	0x3b832881	0.004002631
174	0xbd04e943	-0.03244902
175	0x3d126423	0.03574003
176	0x3bae47db	0.0053186244
177	0xbc9ce917	-0.019154115
178	0x3ad6374e	0.0016343386
179	0xbcb183ba	-0.021669257
180	0xbca7302e	-0.020408716
181	0x3b52a768	0.003214324
182	0xbc40050d	-0.011719954
183	0x3d07b39a	0.033130266
184	0x3c855ac1	0.016278626
185	0xbb91f547	-0.004454288
186	0x3c48cc27	0.012255705
187	0x3cd93fac	0.026519619
188	0xbce898d3	-0.028393185
189	0x39d96f11	0.00041472216
190	0xbc20aaad	-0.009806317
191	0x3a3a9a1c	0.0007118301
192	0x3cc77c89	0.024351375
193	0xbc77e108	-0.015129335
194	0xbcb307ef	-0.021854369
195	0xbd017a40	-0.031610727
196	0xbb3d1dc3	-0.002885685
197	0x3bbf6119	0.0058404324
198	0xbb96b97d	-0.0045997486
199	0xbc8d324c	-0.017235897
200	0x3bb11c9d	0.0054050223
201	0x3bc4b3c4	0.006002875
202	0x3c1f3270	0.009716615
203	0xbb8b7db4	-0.0042569283
204	0x3c3ca15b	0.0115130795
205	0x3c9c5d77	0.019087536
206	0x3b3d90fa	0.0028925524
207	0x3c014272	0.007889377
208	0x3c7a4572	0.015275346
209	0x3c90489f	0.017612753
210	0xbc7650fe	-0.0150339585
211	0x3cac0bcd	0.02100172
212	0x3c4aba0b	0.012373458
213	0xbbb3104e	-0.00546459
214	0x3b9445f9	0.004524943
215	0xba68a28c	-0.0008874319
216	0x3c238223	0.0099797575
217	0xbb87405f	-0.0041275467
218	0x3ba2dda6	0.00497027
219	0xbcd908f6	-0.02649353
220	0x3c53707a	0.0129052345
221	0x3b975941	0.004618794
222	0xbc51915a	-0.012791002
223	0xbd0f8f9a	-0.03504906
224	0xbca153d3	-0.01969329
225	0x3c8fb492	0.017542157
226	0x3bf30df4	0.007417435
227	0xbc0135c2	-0.007886352
228	0xba68927e	-0.00088719267
229	0xbc2d6ddd	-0.0105852755
230	0x3bdcebf7	0.0067419964
231	0x3b94eae4	0.0045446027
232	0x3b3d0263	0.0028840534
233	0xbc64f3b8	-0.013974123
234	0xbc974dfb	-0.018469801
235	0xba57b823	-0.00082290376
236	0xbc90c04c	-0.01766982
237	0xbb735767	-0.0037130953
238	0x3ce5c4bc	0.028047912
239	0xbc1504d4	-0.009095389
240	0x3b24bdcb	0.002513754
241	0xbbd1e234	-0.0064051393
242	0x3ba84866	0.0051355837
243	0x3c4278db	0.0118696345
244	0xbb288044	-0.0025711218
245	0x3baba853	0.0052385717
246	0x3a50255c	0.00079401373
247	0x3caf1108	0.021370426
248	0xbc16c07a	-0.009201163
249	0x3ca27d69	0.01983519
250	0xbc0076bd	-0.007840809
251	0xbc088c2d	-0.008334202
252	0xbd1a2c92	-0.03764016
253	0x3c69b3bb	0.0142640425
254	0xbd008d7f	-0.03138494
255	0xbc8e37f7	-0.01736067

class_classifier.bias f4 [4]
0	0xbc2d0f71	-0.010562764
1	0xbc99e49d	-0.01878577
2	0x3ca1aae3	0.019734805
3	0xb9cfc751	-0.0003963062
