ROS_AMLProject/rot_cls.pth (torch, 17447 bytes, 2 tensors)

class_classifier.weight f4 [4, 1024]
00000000: c69e e4bc 9fe8 973c 1286 0ebb d2cf 97bc
00000010: 05e8 3cbc 257f ce3b d800 893a 0400 6b3c
00000020: 1233 9d3c 54b9 9d3c 569b b73c de81 89bb
00000030: 85b3 f23b b454 fd3c cde1 e0bc 9f95 8bbc
00000040: 30be 0d3b 4a8d 8ebc 9f99 253c b782 cdbc
00000050: c20b 273c 93a3 0bbb 4d69 b6bc 89d7 bbbb
00000060: 878a f6bc 9287 41bc 8b7a 1bbc 626c af3c
00000070: fb6f 0bbd b7fc cf3c c846 89bc ebc1 643c
00000080: db76 cebc e9ee e8bb c750 913c b007 e13c
00000090: ccfc b43b 3b5c f0bc 6936 083b cbfd 933b
000000a0: 7097 6d3b bdb1 593b 02d7 523b ed46 8d3a
000000b0: 490f 68ba 6563 9c3c b126 c8bb 6188 1e3c
000000c0: 5778 19bc acba 923b 6325 c63b 3d6c a93a
000000d0: af43 ce3c 13ea aabc 0408 dbbc 1396 0dbd
000000e0: f3d2 9cbc 0034 a33b 9d0e 983c 01b4 d0bc
000000f0: 3afe d4bb ef18 41bb 8c14 c83b e777 5c3c
00000100: 5a3c a33c 70b3 fb3c 8471 eabb 69c1 2abc
00000110: 9908 e93c 6080 7ebc 6d62 dcba 3e49 46bb
00000120: 4eea 6d3c 1410 09bd 9d55 d6bc d9f0 b1bc
00000130: 8d18 633c e88a a73c 8858 e1bc 4aea 143c
00000140: 08ff e63c 18d8 de3c 3a33 3fbc dcd1 a2bc
00000150: 36f0 f8bb 5117 1a3c 4e1e e6bc 0423 16bb
00000160: c4be c4bb 3690 77bc 0ebe e13b aeef 94bb
00000170: 5d68 71bb 12a9 58bc 477a b43c ca7b 023c
00000180: 7070 bbbc 935e a63c b289 a4bc dda3 543c
00000190: 29d4 89bc 209f a23c b5db 88bc 73c7 293c
000001a0: 2e7f 8f3c ff97 54bb 35b8 b83c 40eb 143d
000001b0: eb92 2e3c 4347 a53c 90ee 9dbc a082 8abc
000001c0: 8189 b7bb 42c9 84bb 4525 843c bef1 a93c
000001d0: 6a0b 273b 233e 0dbc 595d 2abc 13eb 113b
000001e0: f2a0 b7bb ccb6 b8ba 22b3 923c f199 ecbc
000001f0: adc3 0aba f67b f5bc c4d9 3f3c e2a4 80bc
00000200: 8dd1 3a3c a392 c33c 0111 65bc 3169 fcbb
00000210: 52f1 acbb c039 c63c 1947 d9bc 0c33 92bc
00000220: 1117 b23c c535 133c 9b76 343c 7913 66bc
00000230: 38b3 fa3b 9103 953c 7a88 47ba edc5 a7b8
00000240: 9926 f23a 6576 5d3b b1d3 0f3c 1acf 453c
00000250: cd4d b2bb 032c 733b 9935 b23c 7958 26bc
00000260: 5918 b93a 0c0d 823b 1173 ea3b e42e 83bc
00000270: 055b 2a3a 6661 cc3b b405 89bc 02d1 523c
00000280: c087 8e3c d856 d23b 8df5 c4bc c785 cebc
00000290: effd c8ba 60c0 b13a 709a 963b e912 06bc
000002a0: b143 8c3c 0431 383c ffed 023c 5d4c c8bb
000002b0: f3e5 e2bc d008 a73c 7201 38bc 245b 9f3c
000002c0: 1779 ac3c d259 15bc 26c0 70bc 000a 0d3c
000002d0: 2954 333c d04c 90bc f60d a93c 4ec9 7b3b
000002e0: 49a9 4d3c 336c 54bb ce54 aa3b e775 08ba
000002f0: 8bc4 c7bc 64f7 afbc 9840 853c c8da 3bbc
00000300: e4da 153c b13f a3bb 7da5 7fbc f85c c33b
00000310: e11a 95bb e168 bd3c d4f2 a2bc 9733 be3a
00000320: b59d c1ba 63b6 28bc 38a9 923c d3b7 7cbc
00000330: 97fc d33c 4445 e83b 8c62 54bb 5526 2cbc
00000340: 51b8 22bc 1768 3d3c 3c64 e43b 2792 2cbc
00000350: 33f7 533b da20 cdbc 7299 c4bc cb03 943c
00000360: 1d4a 96bc 2ddf 68bc 1ed9 7e3c ee46 8438
00000370: 9acc 93bc 86f0 853c a51a aa3b 7644 e1bc
00000380: a796 f3bc 2626 eaba 2597 853c 636d 42bc
00000390: a367 b8bc ee2d 9aba 4a89 83bc 3bd2 c63c
000003a0: e305 debc 264f 943c e84e 9ebb ef61 c63c
000003b0: 0ac8 ba3c 9f9b e73b f353 a1bc c3e8 b53a
000003c0: 29ae 543c 5d40 9f3b 7dd6 3dbc 1d59 343c
000003d0: 398c f0bc 646f 01bd 10ea b13c 0583 ea3b
000003e0: b353 d2bb 0f34 a23c 9801 253c d191 853c
000003f0: e0e7 cebc 8ee6 86bb 438e 23bb 1ee5 823c
-0.02790774 0.01854354 -0.0021747393 -0.018531714 -0.011529927 0.006301778 0.0010452522 0.014343265
0.019189391 0.01925341 0.022412937 -0.0041963896 0.0074066543 0.030924179 -0.02745142 -0.017039118
0.0021628253 -0.017401356 0.010107427 -0.025086744 0.010195674 -0.0021307215 -0.022267008 -0.005732481
-0.030095352 -0.011812108 -0.009489666 0.021413986 -0.03404234 0.025389059 -0.016757384 0.013962249
-0.02520316 -0.0071085584 0.017738713 0.027469486 0.0055233 -0.029340854 0.0020784384 0.0045163385
0.0036253594 0.0033217513 0.0032171612 0.0010778584 -0.00088523753 0.019090364 -0.006108128 0.00967607
-0.00936707 0.0044778194 0.0060469373 0.0012925934 0.025178758 -0.020863568 -0.02673722 -0.03456695
-0.019143557 0.004980564 0.018561656 -0.025476458 -0.0065000327 -0.0029464324 0.006105965 0.013456321
0.019926239 0.03072521 -0.0071546454 -0.010422089 0.028446482 -0.015533537 -0.0016814001 -0.0030256058
0.014521195 -0.0334626 -0.02616387 -0.02172129 0.013860834 0.020451978 -0.027508035 0.009089062
0.02819778 0.02720265 -0.011669928 -0.01987546 -0.0075969948 0.009404973 -0.028090622 -0.0022909055
-0.0060041863 -0.015110066 0.0068891114 -0.0045451736 -0.0036835887 -0.013223903 0.022030963 0.007964084
-0.022880763 0.020308768 -0.02008519 0.012978521 -0.016824799 0.019851267 -0.016706327 0.010362494
0.017516699 -0.003243923 0.022548774 0.036357164 0.010655145 0.020175582 -0.019278795 -0.01690799
-0.0056011085 -0.004052312 0.016131053 0.020745154 0.002548898 -0.008620772 -0.010398232 0.002226536
-0.005603903 -0.0014092564 0.017907683 -0.028881999 -0.000529344 -0.029966336 0.011709634 -0.015703622
0.0114025 0.023873633 -0.013981105 -0.0077029695 -0.005277791 0.02419746 -0.02652316 -0.017846607
0.021739515 0.008984988 0.011014606 -0.014042729 0.007650759 0.018190177 -0.0007611584 -8.000047e-05
0.0018474638 0.0033792492 0.0087784985 0.012073303 -0.0054414035 0.003710509 0.021754073 -0.010152929
0.0014121636 0.0039688405 0.0071548303 -0.01601357 0.00064985483 0.0062371967 -0.016726352 0.012867214
0.017398715 0.006419044 -0.024042869 -0.025210274 -0.0015334467 0.001356136 0.004596047 -0.0081832195
0.017122122 0.011242155 0.007991313 -0.006112619 -0.027697539 0.020389944 -0.011230813 0.019452639
0.021053834 -0.009115653 -0.014694249 0.008608341 0.010945358 -0.017614752 0.02063654 0.0038419547
0.012552568 -0.0032413125 0.005198098 -0.0005205557 -0.024385711 -0.02148027 0.016266152 -0.011465736
0.009146426 -0.004981958 -0.01560342 0.0059620105 -0.0045503234 0.0231213 -0.01989118 0.0014511225
-0.0014771732 -0.010297391 0.017902955 -0.0154246865 0.02587728 0.007088335 -0.0032407371 -0.010507186
-0.00993164 0.0115604615 0.0069699567 -0.010532892 0.0032343387 -0.025040079 -0.02399895 0.018068215
-0.018345887 -0.0142133655 0.015554694 6.307462e-05 -0.018041898 0.016350042 0.0051911646 -0.027498465
-0.029734923 -0.0017864152 0.016307423 -0.0118669 -0.022510355 -0.0011762956 -0.016056675 0.024270168
-0.027102416 0.018104147 -0.0048311837 0.02421662 0.022800464 0.007068112 -0.01969335 0.0013878572
0.012980976 0.0048599676 -0.0115867825 0.011007574 -0.029363738 -0.03160037 0.021718055 0.007156732
-0.006418669 0.019800214 0.010071181 0.016304882 -0.025257051 -0.0041168397 -0.002495662 0.015978392

class_classifier.bias f4 [4]
00000000: 38e3 e3bc 844a 42ba a8c1 e33c e0e0 7dbc
-0.027818307 -0.00074116164 0.027802303 -0.015495509
