ROS_AMLProject/rot_cls_step1.pth (torch, 17447 bytes, 2 tensors)

class_classifier.weight f4 [4, 1024]
-0.01079473 0.029425293 0.02556186 -0.025464315 -0.008007001 0.015806427 -0.006766315 0.0058611035
0.011756977 -0.013182627 -0.010081024 -0.001815482 -0.022505872 -0.013772449 -0.00863426 0.01491564
-0.011419392 0.025610238 -0.01611558 0.02492761 -0.02860529 -0.007060177 -0.0043768757 -0.008839438
-0.016063273 -0.0010161003 0.011196015 -0.019247498 -0.04239413 0.029449733 -0.0066125244 -0.016466422
0.012530738 -0.02696588 -0.019878786 -0.0014872127 -0.016761046 -0.0066373483 -0.006191874 -0.017080788
-0.016345697 0.00045158123 -0.0064072995 -0.0374282 0.004879419 0.022694284 0.019730153 -0.02985869
-0.02103938 -0.022919318 -0.006646217 -0.004952945 0.006246193 0.0128559945 -0.009871272 0.0058013713
0.004849889 -0.009847383 -0.0026752441 0.010020607 0.026979197 0.021930331 0.009321998 0.010520009
0.02416617 0.021612082 0.015686683 -0.008847014 0.005535248 -0.016915066 -0.015038516 -0.030969629
-0.00023579907 -0.031069303 -0.026988877 0.011847391 0.020422509 -0.030136703 0.011632302 0.015628634
0.0215731 -0.008921205 0.02822947 0.017380781 -0.02070074 -0.020610947 0.007803049 -0.02561385
-0.0010250211 0.025686268 0.0051203794 -0.001092989 -0.028972099 0.0075668874 -0.024233166 -0.0076320576
-0.0035064742 -0.0009727303 -0.01557252 0.01797383 0.025368458 0.008389668 -0.005140116 0.021833742
0.030752266 0.009600629 0.02846933 0.0307516 0.026525466 -0.0024453874 0.029770277 0.003301575
-0.014134151 0.0066326507 0.0332277 -0.0057572173 -0.034842063 -0.018750237 -0.021370979 -0.028713334
-0.018698143 0.00991085 0.025310498 0.010922469 -0.02663785 -0.013310202 -0.028497983 -0.025868958
-0.029118005 0.006094173 -0.024132054 -0.005933439 -0.030164566 -0.010613355 -0.025002155 0.009034829
-0.024601249 -0.00078703166 0.017296607 0.009157893 -0.011874315 -0.019782022 -0.0014648687 0.008095749
-0.014343831 -0.02842159 -0.01129708 -0.01971381 0.022808127 -0.011327165 0.018656403 -0.011225165
0.003951379 0.020509008 0.0036055108 -0.02665478 -0.0018234137 -0.022914432 -0.015290119 -0.002645724
0.024664473 0.022239301 -0.0037960394 -0.044158474 -0.023392059 0.018292075 -0.014402958 -0.00085621077
0.019488227 -8.778983e-05 -0.0054917843 0.014367018 0.014326694 0.015908848 0.0055504893 0.0057504275
-0.0032970167 0.003593517 -0.0036680792 0.02347132 -0.016477814 0.026487151 0.007100035 0.026664179
0.0010966056 0.021928852 -0.024313604 0.026012566 -0.024877116 -0.0019211788 0.026052946 0.00021999821
-0.02551487 -0.009037416 0.019370845 -0.020263145 0.02354464 -0.025491308 -0.017559264 -0.023805551
0.009992773 0.0082612205 0.020073617 0.0058548283 -0.013349115 -0.006093601 0.00051824754 0.0032917846
0.010435799 0.009311137 0.0032056586 -0.018138142 0.02252841 0.011941581 -0.018958535 0.01286711
-0.001023078 -0.019393723 -0.024439551 0.00025256028 -0.018020917 -0.00876415 -0.013782524 -0.017099634
0.020478286 0.018345794 -0.008453739 0.025393954 0.0038016182 0.0061100824 -0.009394008 -0.00951003
0.032587506 -0.01421001 0.0118241515 -0.025887785 -0.0009211869 -0.016529802 0.020112023 0.00829379
0.0044208225 -0.013159898 0.0041562705 -0.0125553915 -0.03208866 -0.024142606 -0.021656858 -0.02264295
-0.008846712 -0.019150717 0.021837827 -0.0008274104 -0.008034408 -0.01397943 -0.00092070544 -0.022415567
00000000: 61dc 30bc 500d f13c 1b67 d13c 8a9a d0bc
00000010: cc2f 03bc 7b7c 813c f7b7 ddbb 800e c03b
00000020: 56a0 403c f2fb 57bc e12a 25bc 78f5 edba
00000030: 3c5e b8bc d7a5 61bc b676 0dbc ba60 743c
00000040: 6718 3bbc 90cc d13c d204 84bc fd34 cc3c
00000050: a455 eabc 0f59 e7bb e56b 8fbb 4ad3 10bc
00000060: 2097 83bc ab2e 85ba 7e6f 373c eeac 9dbc
00000070: 78a5 2dbd 9140 f13c e0ad d8bb 97e4 86bc
00000080: b94d 4d3c 8de7 dcbc d6d8 a2bc 94ee c2ba
00000090: 764e 89bc 1d7e d9bb 34e5 cabb 02ed 8bbc
000000a0: 69e7 85bc 35c2 ec39 53f4 d1bb 504e 19bd
000000b0: 89e3 9f3b 5de9 b93c 21a1 a13c 369a f4bc
000000c0: c75a acbc 4bc1 bbbc 82c8 d9bb 504c a2bb
000000d0: ddac cc3b f3a1 523c 1ebb 21bc 6e19 be3b
000000e0: d1eb 9e3b eb56 21bc 2653 2fbb 792d 243c
000000f0: 7a03 dd3c 3da7 b33c 4bbb 183c 1e5c 2c3c
00000100: 22f8 c53c d20b b13c 5c81 803c 11f3 10bc
00000110: 0761 b53b 7791 8abc 1c64 76bc 05b4 fdbc
00000120: d540 77b9 0d85 febc c717 ddbc 8f1b 423c
00000130: 1b4d a73c 3fe1 f6bc 6995 3e3c 9f07 803c
00000140: 12ba b03c 3f2a 12bc 7d41 e73c 2462 8e3c
00000150: 9994 a9bc 4ad8 a8bc b8b0 ff3b 23d4 d1bc
00000160: 005a 86ba 026c d23c dbc8 a73b a042 8fba
00000170: e556 edbc a7f3 f73b a284 c6bc 5716 fabb
00000180: e0cc 65bb d3fe 7eba e223 7fbc db3d 933c
00000190: 83d1 cf3c d174 093c 6b6e a8bb addc b23c
000001a0: 2dec fb3c f54b 1d3c 8338 e93c c8ea fb3c
000001b0: ef4b d93c cb42 20bb cce0 f33c 3d5f 583b
000001c0: ed92 67bc b556 d93b c519 083d 0aa7 bcbb
000001d0: 8db6 0ebd 199a 99bc 3112 afbc 3a38 ebbc
000001e0: d92c 99bc 1e61 223c f657 cf3c 28f4 323c
000001f0: 9f37 dabc 0913 5abc 9a74 e9bc 23eb d3bc
00000200: e288 eebc a1b1 c73b 96b0 c5bc 4b6d c2bb
00000210: ae1b f7bc a3e3 2dbc 52d1 ccbc d206 143c
00000220: 8f88 c9bc cd50 4eba 9db1 8d3c fd0a 163c
00000230: 7d8c 42bc e80d a2bc d600 c0ba 08a4 043c
00000240: 6302 6bbc 65d4 e8bc 6317 39bc db7e a1bc
00000250: 1cd8 ba3c 9395 39bc 50d5 983c c1e9 37bc
00000260: 927a 813b 8202 a83c 6f4a 6c3b 205b dabc
00000270: 9cff eeba 0cb7 bbbc 6883 7abc e263 2dbb
00000280: 260d ca3c 322f b63c f9c6 78bb 84df 34bd
00000290: b4a0 bfbc 43d9 953c 62fa 6bbc 5573 60ba
000002a0: c6a5 9f3c ce1b b8b8 6df4 b3bb a463 6b3c
000002b0: 83ba 6a3c 4653 823c e1e0 b53b 156e bc3b
000002c0: c312 58bb 3681 6b3b 2864 70bb ed46 c03c
000002d0: 7bfc 86bc 95fb d83c 69a7 e83b d66e da3c
000002e0: fabb 8f3a 23a4 b33c 532d c7bc 4e18 d53c
000002f0: 18cb cbbc 10d0 fbba fd6c d53c 52af 6639
00000300: 9004 d1bc ac11 14bc 9baf 9e3c e5fe a5bc
00000310: b0e0 c03c 26d3 d0bc 72d8 8fbc dc03 c3bc
00000320: bab8 233c 125a 073c 6d71 a43c dcd9 bf3b
00000330: 3fb6 5abc d5ac c7bb 01db 073a fbba 573b
00000340: eafa 2a3c bd8d 183c 0716 523b 7196 94bc
00000350: 808d b83c 9fa6 433c ee4e 9bbc 92d0 523c
00000360: cd18 86ba 96df 9ebc 7435 c8bc 116a 8439
00000370: 9aa0 93bc 8297 0fbc 18d0 61bc 8814 8cbc
00000380: 14c2 a73c eb49 963c 8d81 0abc fb06 d03c
00000390: 9224 793b 1637 c83b 53e9 19bc f5cf 1bbc
000003a0: 7a7a 053d 1ad1 68bc 16ba 413c 9f12 d4bc
000003b0: ce7b 71ba 8269 87bc f8c1 a43c ade2 073c
000003c0: 8cdc 903b 9d9c 57bc 5331 883b 21b5 4dbc
000003d0: 666f 03bd b7c6 c5bc b969 b1bc b57d b9bc
000003e0: cdf1 10bc f7e1 9cbc 3ee5 b23c 92e6 58ba
000003f0: c0a2 03bc fb09 65bc 7f5b 71ba daa0 b7bc

class_classifier.bias f4 [4]
-0.02886847 0.01485425 -0.018243361 0.00087646383
00000000: 927d ecbc 3d5f 733c 1a73 95bc 7ec2 653a
